…
2020-05-26 16:26:42.789581: I tensorflow/stream_executor/cuda/cuda_gpu_executor.cc:981] successful NUMA node read from SysFS had negative value (-1), but there must be at least one NUMA node, so returning NUMA node zero
2020-05-26 16:26:42.791182: I tensorflow/core/common_runtime/gpu/gpu_device.cc:1241] Created TensorFlow device (/job:localhost/replica:0/task:0/device:GPU:1 with 15216 MB memory) -> physical GPU (device: 1, name: Tesla P100-SXM2-16GB, pci bus id: 0000:00:0b.0, compute capability: 6.0)
Model: "model_1"
_________________________________________________________________
Layer (type)                 Output Shape              Param #   
=================================================================
input_1 (InputLayer)         (None, 180, 180, 3)       0         
_________________________________________________________________
Econv2d_1 (Conv2D)           (None, 180, 180, 281)     7868      
_________________________________________________________________
Emaxpool2d_1 (MaxPooling2D)  (None, 90, 90, 281)       0         
_________________________________________________________________
dropout_2 (Dropout)          (None, 90, 90, 281)       0         
_________________________________________________________________
Econv2d_2 (Conv2D)           (None, 90, 90, 140)       354200    
_________________________________________________________________
Emaxpool2d_2 (MaxPooling2D)  (None, 45, 45, 140)       0         
_________________________________________________________________
dropout_3 (Dropout)          (None, 45, 45, 140)       0         
_________________________________________________________________
Econv2d_3 (Conv2D)           (None, 45, 45, 70)        88270     
_________________________________________________________________
Emaxpool2d_3 (MaxPooling2D)  (None, 23, 23, 70)        0         
_________________________________________________________________
dropout_4 (Dropout)          (None, 23, 23, 70)        0         
_________________________________________________________________
Dconv2d_1 (Conv2D)           (None, 23, 23, 70)        44170     
_________________________________________________________________
Dupsamp_1 (UpSampling2D)     (None, 46, 46, 70)        0         
_________________________________________________________________
dropout_5 (Dropout)          (None, 46, 46, 70)        0         
_________________________________________________________________
Dconv2d_2 (Conv2D)           (None, 46, 46, 140)       88340     
_________________________________________________________________
Dupsamp_2 (UpSampling2D)     (None, 92, 92, 140)       0         
_________________________________________________________________
dropout_6 (Dropout)          (None, 92, 92, 140)       0         
_________________________________________________________________
Dconv2d_3 (Conv2D)           (None, 90, 90, 281)       354341    
_________________________________________________________________
Dupsamp_3 (UpSampling2D)     (None, 180, 180, 281)     0         
_________________________________________________________________
dropout_7 (Dropout)          (None, 180, 180, 281)     0         
_________________________________________________________________
Dconv2d_out (Conv2D)         (None, 180, 180, 3)       7590      
=================================================================
Total params: 944,779
Trainable params: 944,779
Non-trainable params: 0
_________________________________________________________________
Train on 13862 samples, validate on 2974 samples
Epoch 1/10
2020-05-26 16:26:47.161764: I tensorflow/stream_executor/platform/default/dso_loader.cc:44] Successfully opened dynamic library libcudnn.so.7
…
